…
   "metadata": {},
   "outputs": [],
   "source": [
    "model.compile('adam', loss=tf.losses.BinaryCrossentropy(), metrics=['accuracy'])"
   ]
  },
  {
   "cell_type": "code",
   "execution_count": 35,
   "metadata": {},
   "outputs": [
    {
     "name": "stdout",
     "output_type": "stream",
     "text": [
      "Model: \"sequential\"\n",
      "_________________________________________________________________\n",
      " Layer (type)                Output Shape              Param #   \n",
      "=================================================================\n",
      " conv2d (Conv2D)             (None, 254, 254, 16)      448       \n",
      "                                                                 \n",
      " max_pooling2d (MaxPooling2D  (None, 127, 127, 16)     0         \n",
      " )                                                               \n",
      "                                                                 \n",
      " conv2d_1 (Conv2D)           (None, 125, 125, 32)      4640      \n",
      "                                                                 \n",
      " max_pooling2d_1 (MaxPooling  (None, 62, 62, 32)       0         \n",
      " 2D)                                                             \n",
      "                                                                 \n",
      " conv2d_2 (Conv2D)           (None, 60, 60, 16)        4624      \n",
      "                                                                 \n",
      " max_pooling2d_2 (MaxPooling  (None, 30, 30, 16)       0         \n",
      " 2D)                                                             \n",
      "                                                                 \n",
      " flatten (Flatten)           (None, 14400)             0         \n",
      "                                                                 \n",
      " dense (Dense)               (None, 256)               3686656   \n",
      "                                                                 \n",
      " dense_1 (Dense)             (None, 1)                 257       \n",
      "                                                                 \n",
      "=================================================================\n",
      "Total params: 3,696,625\n",
      "Trainable params: 3,696,625\n",
      "Non-trainable params: 0\n",
      "_________________________________________________________________\n"
     ]
    }
   ],
   "source": [
    "model.summary()"
…
